…
ataset': 'cifar10', 'use_gpu': True, 'input_size': 32, 'epochs': 30, 'batch_size': 128, 'test_batch': 200, 'eval_freq': 2, 'workers': 4, 'optimize': {'momentum': 0.9, 'weight_decay': 0.0005, 'nesterov': True}, 'mixup': False, 'mixup_alpha': 0.4, 'augmentation': {'normalize': True, 'random_crop': True, 'random_horizontal_filp': True, 'cutout': False, 'holes': 1, 'length': 8}, 'lr_scheduler': {'type': 'STEP', 'base_lr': 0.1, 'lr_epochs': [150, 225], 'lr_mults': 0.1, 'min_lr': 0.0, 'lower_bound': -6.0, 'upper_bound': 3.0}}
[2023-04-19 15:53:17,561] - [train.py line:175] : SeResNeXt(
  (conv_1_3x3): Conv2d(3, 64, kernel_size=(3, 3), stride=(1, 1), padding=(1, 1), bias=False)
  (bn_1): BatchNorm2d(64, eps=1e-05, momentum=0.1, affine=True, track_running_stats=True)
  (stage_1): Sequential(
    (stage_1_bottleneck_0): Bottleneck(
      (relu): ReLU(inplace=True)
      (se_module): SEModule(
        (avg_pool): AdaptiveAvgPool2d(output_size=1)
        (fc_1): Conv2d(256, 16, kernel_size=(1, 1), stride=(1, 1))
        (relu): ReLU(inplace=True)
        (fc_2): Conv2d(16, 256, kernel_size=(1, 1), stride=(1, 1))
        (sigmoid): Sigmoid()
      )
      (conv_reduce): Conv2d(64, 1024, kernel_size=(1, 1), stride=(1, 1), bias=False)
      (bn_reduce): BatchNorm2d(1024, eps=1e-05, momentum=0.1, affine=True, track_running_stats=True)
      (conv_conv): Conv2d(1024, 1024, kernel_size=(3, 3), stride=(1, 1), padding=(1, 1), groups=16, bias=False)
      (bn): BatchNorm2d(1024, eps=1e-05, momentum=0.1, affine=True, track_running_stats=True)
      (conv_expand): Conv2d(1024, 256, kernel_size=(1, 1), stride=(1, 1), bias=False)
      (bn_expand): BatchNorm2d(256, eps=1e-05, momentum=0.1, affine=True, track_running_stats=True)
      (shortcut): Sequential(
        (shortcut_conv): Conv2d(64, 256, kernel_size=(1, 1), stride=(1, 1), bias=False)
        (shortcut_bn): BatchNorm2d(256, eps=1e-05, momentum=0.1, affine=True, track_running_stats=True)
      )
    )
    (stage_1_bottleneck_1): Bottleneck(
      (relu): ReLU(inplace=True)
      (se_module): SEModule(
        (avg_pool): AdaptiveAvgPool2d(output_size=1)
        (fc_1): Conv2d(256, 16, kernel_size=(1, 1), stride=(1, 1))
        (relu): ReLU(inplace=True)
        (fc_2): Conv2d(16, 256, kernel_size=(1, 1), stride=(1, 1))
        (sigmoid): Sigmoid()
      )
      (conv_reduce): Conv2d(256, 1024, kernel_size=(1, 1), stride=(1, 1), bias=False)
      (bn_reduce): BatchNorm2d(1024, eps=1e-05, momentum=0.1, affine=True, track_running_stats=True)
      (conv_conv): Conv2d(1024, 1024, kernel_size=(3, 3), stride=(1, 1), padding=(1, 1), groups=16, bias=False)
      (bn): BatchNorm2d(1024, eps=1e-05, momentum=0.1, affine=True, track_running_stats=True)
      (conv_expand): Conv2d(1024, 256, kernel_size=(1, 1), stride=(1, 1), bias=False)
      (bn_expand): BatchNorm2d(256, eps=1e-05, momentum=0.1, affine=True, track_running_stats=True)
      (shortcut): Sequential()
    )
    (stage_1_bottleneck_2): Bottleneck(
      (relu): ReLU(inplace=True)
      (se_module): SEModule(
        (avg_pool): AdaptiveAvgPool2d(output_size=1)
        (fc_1): Conv2d(256, 16, kernel_size=(1, 1), stride=(1, 1))
        (relu): ReLU(inplace=True)
        (fc_2): Conv2d(16, 256, kernel_size=(1, 1), stride=(1, 1))
        (sigmoid): Sigmoid()
      )
      (conv_reduce): Conv2d(256, 1024, kernel_size=(1, 1), stride=(1, 1), bias=False)
      (bn_reduce): BatchNorm2d(1024, eps=1e-05, momentum=0.1, affine=True, track_running_stats=True)
      (conv_conv): Conv2d(1024, 1024, kernel_size=(3, 3), stride=(1, 1), padding=(1, 1), groups=16, bias=False)
      (bn): BatchNorm2d(1024, eps=1e-05, momentum=0.1, affine=True, track_running_stats=True)
      (conv_expand): Conv2d(1024, 256, kernel_size=(1, 1), stride=(1, 1), bias=False)
      (bn_expand): BatchNorm2d(256, eps=1e-05, momentum=0.1, affine=True, track_running_stats=True)
      (shortcut): Sequential()
    )
  )
  (stage_2): Sequential(
    (stage_2_bottleneck_0): Bottleneck(
      (relu): ReLU(inplace=True)
      (se_module): SEModule(
        (avg_pool): AdaptiveAvgPool2d(output_size=1)
        (fc_1): Conv2d(512, 32, kernel_size=(1, 1), stride=(1, 1))
        (relu): ReLU(inplace=True)
        (fc_2): Conv2d(32, 512, kernel_size=(1, 1), stride=(1, 1))
        (sigmoid): Sigmoid()
      )
      (conv_reduce): Conv2d(256, 2048, kernel_size=(1, 1), stride=(1, 1), bias=False)
      (bn_reduce): BatchNorm2d(2048, eps=1e-05, momentum=0.1, affine=True, track_running_stats=True)
      (conv_conv): Conv2d(2048, 2048, kernel_size=(3, 3), stride=(2, 2), padding=(1, 1), groups=16, bias=False)
      (bn): BatchNorm2d(2048, eps=1e-05, momentum=0.1, affine=True, track_running_stats=True)
      (conv_expand): Conv2d(2048, 512, kernel_size=(1, 1), stride=(1, 1), bias=False)
      (bn_expand): BatchNorm2d(512, eps=1e-05, momentum=0.1, affine=True, track_running_stats=True)
      (shortcut): Sequential(
        (shortcut_conv): Conv2d(256, 512, kernel_size=(1, 1), stride=(2, 2), bias=False)
        (shortcut_bn): BatchNorm2d(512, eps=1e-05, momentum=0.1, affine=True, track_running_stats=True)
      )
    )
    (stage_2_bottleneck_1): Bottleneck(
      (relu): ReLU(inplace=True)
      (se_module): SEModule(
        (avg_pool): AdaptiveAvgPool2d(output_size=1)
        (fc_1): Conv2d(512, 32, kernel_size=(1, 1), stride=(1, 1))
        (relu): ReLU(inplace=True)
        (fc_2): Conv2d(32, 512, kernel_size=(1, 1), stride=(1, 1))
        (sigmoid): Sigmoid()
      )
      (conv_reduce): Conv2d(512, 2048, kernel_size=(1, 1), stride=(1, 1), bias=False)
      (bn_reduce): BatchNorm2d(2048, eps=1e-05, momentum=0.1, affine=True, track_running_stats=True)
      (conv_conv): Conv2d(2048, 2048, kernel_size=(3, 3), stride=(1, 1), padding=(1, 1), groups=16, bias=False)
      (bn): BatchNorm2d(2048, eps=1e-05, momentum=0.1, affine=True, track_running_stats=True)
      (conv_expand): Conv2d(2048, 512, kernel_size=(1, 1), stride=(1, 1), bias=False)
      (bn_expand): BatchNorm2d(512, eps=1e-05, momentum=0.1, affine=True, track_running_stats=True)
      (shortcut): Sequential()
    )
    (stage_2_bottleneck_2): Bottleneck(
      (relu): ReLU(inplace=True)
      (se_module): SEModule(
        (avg_pool): AdaptiveAvgPool2d(output_size=1)
        (fc_1): Conv2d(512, 32, kernel_size=(1, 1), stride=(1, 1))
        (relu): ReLU(inplace=True)
        (fc_2): Conv2d(32, 512, kernel_size=(1, 1), stride=(1, 1))
        (sigmoid): Sigmoid()
      )
      (conv_reduce): Conv2d(512, 2048, kernel_size=(1, 1), stride=(1, 1), bias=False)
      (bn_reduce): BatchNorm2d(2048, eps=1e-05, momentum=0.1, affine=True, track_running_stats=True)
      (conv_conv): Conv2d(2048, 2048, kernel_size=(3, 3), stride=(1, 1), padding=(1, 1), groups=16, bias=False)
      (bn): BatchNorm2d(2048, eps=1e-05, momentum=0.1, affine=True, track_running_stats=True)
      (conv_expand): Conv2d(2048, 512, kernel_size=(1, 1), stride=(1, 1), bias=False)
      (bn_expand): BatchNorm2d(512, eps=1e-05, momentum=0.1, affine=True, track_running_stats=True)
      (shortcut): Sequential()
    )
  )
  (stage_3): Sequential(
    (stage_3_bottleneck_0): Bottleneck(
      (relu): ReLU(inplace=True)
      (se_module): SEModule(
        (avg_pool): AdaptiveAvgPool2d(output_size=1)
        (fc_1): Conv2d(1024, 64, kernel_size=(1, 1), stride=(1, 1))
        (relu): ReLU(inplace=True)
        (fc_2): Conv2d(64, 1024, kernel_size=(1, 1), stride=(1, 1))
        (sigmoid): Sigmoid()
      )
      (conv_reduce): Conv2d(512, 4096, kernel_size=(1, 1), stride=(1, 1), bias=False)
      (bn_reduce): BatchNorm2d(4096, eps=1e-05, momentum=0.1, affine=True, track_running_stats=True)
      (conv_conv): Conv2d(4096, 4096, kernel_size=(3, 3), stride=(2, 2), padding=(1, 1), groups=16, bias=False)
      (bn): BatchNorm2d(4096, eps=1e-05, momentum=0.1, affine=True, track_running_stats=True)
      (conv_expand): Conv2d(4096, 1024, kernel_size=(1, 1), stride=(1, 1), bias=False)
      (bn_expand): BatchNorm2d(1024, eps=1e-05, momentum=0.1, affine=True, track_running_stats=True)
      (shortcut): Sequential(
        (shortcut_conv): Conv2d(512, 1024, kernel_size=(1, 1), stride=(2, 2), bias=False)
        (shortcut_bn): BatchNorm2d(1024, eps=1e-05, momentum=0.1, affine=True, track_running_stats=True)
      )
    )
    (stage_3_bottleneck_1): Bottleneck(
      (relu): ReLU(inplace=True)
      (se_module): SEModule(
        (avg_pool): AdaptiveAvgPool2d(output_size=1)
        (fc_1): Conv2d(1024, 64, kernel_size=(1, 1), stride=(1, 1))
        (relu): ReLU(inplace=True)
        (fc_2): Conv2d(64, 1024, kernel_size=(1, 1), stride=(1, 1))
        (sigmoid): Sigmoid()
      )
      (conv_reduce): Conv2d(1024, 4096, kernel_size=(1, 1), stride=(1, 1), bias=False)
      (bn_reduce): BatchNorm2d(4096, eps=1e-05, momentum=0.1, affine=True, track_running_stats=True)
      (conv_conv): Conv2d(4096, 4096, kernel_size=(3, 3), stride=(1, 1), padding=(1, 1), groups=16, bias=False)
      (bn): BatchNorm2d(4096, eps=1e-05, momentum=0.1, affine=True, track_running_stats=True)
      (conv_expand): Conv2d(4096, 1024, kernel_size=(1, 1), stride=(1, 1), bias=False)
      (bn_expand): BatchNorm2d(1024, eps=1e-05, momentum=0.1, affine=True, track_running_stats=True)
      (shortcut): Sequential()
    )
    (stage_3_bottleneck_2): Bottleneck(
      (relu): ReLU(inplace=True)
      (se_module): SEModule(
        (avg_pool): AdaptiveAvgPool2d(output_size=1)
        (fc_1): Conv2d(1024, 64, kernel_size=(1, 1), stride=(1, 1))
        (relu): ReLU(inplace=True)
        (fc_2): Conv2d(64, 1024, kernel_size=(1, 1), stride=(1, 1))
        (sigmoid): Sigmoid()
      )
      (conv_reduce): Conv2d(1024, 4096, kernel_size=(1, 1), stride=(1, 1), bias=False)
      (bn_reduce): BatchNorm2d(4096, eps=1e-05, momentum=0.1, affine=True, track_running_stats=True)
      (conv_conv): Conv2d(4096, 4096, kernel_size=(3, 3), stride=(1, 1), padding=(1, 1), groups=16, bias=False)
      (bn): BatchNorm2d(4096, eps=1e-05, momentum=0.1, affine=True, track_running_stats=True)
      (conv_expand): Conv2d(4096, 1024, kernel_size=(1, 1), stride=(1, 1), bias=False)
      (bn_expand): BatchNorm2d(1024, eps=1e-05, momentum=0.1, affine=True, track_running_stats=True)
      (shortcut): Sequential()
    )
  )
  (fc): Linear(in_features=1024, out_features=10, bias=True)
)
[2023-04-19 15:53:17,563] - [train.py line:176] :  == total parameters: 68677018
[2023-04-19 15:54:37,195] - [train.py line:171] : {'architecture': 'se_resnext29_16x64d', 'data_path': '.././data', 'ckpt_path': './', 'ckpt_name': 'se_resnext29_16x64d', 'num_classes': 10, 'dataset': 'cifar10', 'use_gpu': True, 'input_size': 32, 'epochs': 30, 'batch_siz
…
