…
10, 'dataset': 'cifar10', 'use_gpu': True, 'input_size': 32, 'epochs': 50, 'batch_size': 64, 'test_batch': 200, 'eval_freq': 2, 'workers': 4, 'optimize': {'momentum': 0.9, 'weight_decay': 0.0001, 'nesterov': True}, 'mixup': False, 'mixup_alpha': 0.4, 'augmentation': {'normalize': True, 'random_crop': True, 'random_horizontal_filp': True, 'cutout': False, 'holes': 1, 'length': 8}, 'lr_scheduler': {'type': 'STEP', 'base_lr': 0.1, 'lr_epochs': [150, 225], 'lr_mults': 0.1, 'min_lr': 0.0, 'lower_bound': -6.0, 'upper_bound': 3.0}}
[2023-04-21 07:23:23,944] - [train.py line:195] : DenseNet(
  (conv_1): Conv2d(3, 24, kernel_size=(3, 3), stride=(1, 1), padding=(1, 1), bias=False)
  (dense1): Sequential(
    (0): Bottleneck(
      (bn_1): BatchNorm2d(24, eps=1e-05, momentum=0.1, affine=True, track_running_stats=True)
      (conv_1): Conv2d(24, 48, kernel_size=(1, 1), stride=(1, 1), bias=False)
      (bn_2): BatchNorm2d(48, eps=1e-05, momentum=0.1, affine=True, track_running_stats=True)
      (conv_2): Conv2d(48, 12, kernel_size=(3, 3), stride=(1, 1), padding=(1, 1), bias=False)
    )
    (1): Bottleneck(
      (bn_1): BatchNorm2d(36, eps=1e-05, momentum=0.1, affine=True, track_running_stats=True)
      (conv_1): Conv2d(36, 48, kernel_size=(1, 1), stride=(1, 1), bias=False)
      (bn_2): BatchNorm2d(48, eps=1e-05, momentum=0.1, affine=True, track_running_stats=True)
      (conv_2): Conv2d(48, 12, kernel_size=(3, 3), stride=(1, 1), padding=(1, 1), bias=False)
    )
    (2): Bottleneck(
      (bn_1): BatchNorm2d(48, eps=1e-05, momentum=0.1, affine=True, track_running_stats=True)
      (conv_1): Conv2d(48, 48, kernel_size=(1, 1), stride=(1, 1), bias=False)
      (bn_2): BatchNorm2d(48, eps=1e-05, momentum=0.1, affine=True, track_running_stats=True)
      (conv_2): Conv2d(48, 12, kernel_size=(3, 3), stride=(1, 1), padding=(1, 1), bias=False)
    )
    (3): Bottleneck(
      (bn_1): BatchNorm2d(60, eps=1e-05, momentum=0.1, affine=True, track_running_stats=True)
      (conv_1): Conv2d(60, 48, kernel_size=(1, 1), stride=(1, 1), bias=False)
      (bn_2): BatchNorm2d(48, eps=1e-05, momentum=0.1, affine=True, track_running_stats=True)
      (conv_2): Conv2d(48, 12, kernel_size=(3, 3), stride=(1, 1), padding=(1, 1), bias=False)
    )
    (4): Bottleneck(
      (bn_1): BatchNorm2d(72, eps=1e-05, momentum=0.1, affine=True, track_running_stats=True)
      (conv_1): Conv2d(72, 48, kernel_size=(1, 1), stride=(1, 1), bias=False)
      (bn_2): BatchNorm2d(48, eps=1e-05, momentum=0.1, affine=True, track_running_stats=True)
      (conv_2): Conv2d(48, 12, kernel_size=(3, 3), stride=(1, 1), padding=(1, 1), bias=False)
    )
    (5): Bottleneck(
      (bn_1): BatchNorm2d(84, eps=1e-05, momentum=0.1, affine=True, track_running_stats=True)
      (conv_1): Conv2d(84, 48, kernel_size=(1, 1), stride=(1, 1), bias=False)
      (bn_2): BatchNorm2d(48, eps=1e-05, momentum=0.1, affine=True, track_running_stats=True)
      (conv_2): Conv2d(48, 12, kernel_size=(3, 3), stride=(1, 1), padding=(1, 1), bias=False)
    )
    (6): Bottleneck(
      (bn_1): BatchNorm2d(96, eps=1e-05, momentum=0.1, affine=True, track_running_stats=True)
      (conv_1): Conv2d(96, 48, kernel_size=(1, 1), stride=(1, 1), bias=False)
      (bn_2): BatchNorm2d(48, eps=1e-05, momentum=0.1, affine=True, track_running_stats=True)
      (conv_2): Conv2d(48, 12, kernel_size=(3, 3), stride=(1, 1), padding=(1, 1), bias=False)
    )
    (7): Bottleneck(
      (bn_1): BatchNorm2d(108, eps=1e-05, momentum=0.1, affine=True, track_running_stats=True)
      (conv_1): Conv2d(108, 48, kernel_size=(1, 1), stride=(1, 1), bias=False)
      (bn_2): BatchNorm2d(48, eps=1e-05, momentum=0.1, affine=True, track_running_stats=True)
      (conv_2): Conv2d(48, 12, kernel_size=(3, 3), stride=(1, 1), padding=(1, 1), bias=False)
    )
    (8): Bottleneck(
      (bn_1): BatchNorm2d(120, eps=1e-05, momentum=0.1, affine=True, track_running_stats=True)
      (conv_1): Conv2d(120, 48, kernel_size=(1, 1), stride=(1, 1), bias=False)
      (bn_2): BatchNorm2d(48, eps=1e-05, momentum=0.1, affine=True, track_running_stats=True)
      (conv_2): Conv2d(48, 12, kernel_size=(3, 3), stride=(1, 1), padding=(1, 1), bias=False)
    )
    (9): Bottleneck(
      (bn_1): BatchNorm2d(132, eps=1e-05, momentum=0.1, affine=True, track_running_stats=True)
      (conv_1): Conv2d(132, 48, kernel_size=(1, 1), stride=(1, 1), bias=False)
      (bn_2): BatchNorm2d(48, eps=1e-05, momentum=0.1, affine=True, track_running_stats=True)
      (conv_2): Conv2d(48, 12, kernel_size=(3, 3), stride=(1, 1), padding=(1, 1), bias=False)
    )
    (10): Bottleneck(
      (bn_1): BatchNorm2d(144, eps=1e-05, momentum=0.1, affine=True, track_running_stats=True)
      (conv_1): Conv2d(144, 48, kernel_size=(1, 1), stride=(1, 1), bias=False)
      (bn_2): BatchNorm2d(48, eps=1e-05, momentum=0.1, affine=True, track_running_stats=True)
      (conv_2): Conv2d(48, 12, kernel_size=(3, 3), stride=(1, 1), padding=(1, 1), bias=False)
    )
    (11): Bottleneck(
      (bn_1): BatchNorm2d(156, eps=1e-05, momentum=0.1, affine=True, track_running_stats=True)
      (conv_1): Conv2d(156, 48, kernel_size=(1, 1), stride=(1, 1), bias=False)
      (bn_2): BatchNorm2d(48, eps=1e-05, momentum=0.1, affine=True, track_running_stats=True)
      (conv_2): Conv2d(48, 12, kernel_size=(3, 3), stride=(1, 1), padding=(1, 1), bias=False)
    )
    (12): Bottleneck(
      (bn_1): BatchNorm2d(168, eps=1e-05, momentum=0.1, affine=True, track_running_stats=True)
      (conv_1): Conv2d(168, 48, kernel_size=(1, 1), stride=(1, 1), bias=False)
      (bn_2): BatchNorm2d(48, eps=1e-05, momentum=0.1, affine=True, track_running_stats=True)
      (conv_2): Conv2d(48, 12, kernel_size=(3, 3), stride=(1, 1), padding=(1, 1), bias=False)
    )
    (13): Bottleneck(
      (bn_1): BatchNorm2d(180, eps=1e-05, momentum=0.1, affine=True, track_running_stats=True)
      (conv_1): Conv2d(180, 48, kernel_size=(1, 1), stride=(1, 1), bias=False)
      (bn_2): BatchNorm2d(48, eps=1e-05, momentum=0.1, affine=True, track_running_stats=True)
      (conv_2): Conv2d(48, 12, kernel_size=(3, 3), stride=(1, 1), padding=(1, 1), bias=False)
    )
    (14): Bottleneck(
      (bn_1): BatchNorm2d(192, eps=1e-05, momentum=0.1, affine=True, track_running_stats=True)
      (conv_1): Conv2d(192, 48, kernel_size=(1, 1), stride=(1, 1), bias=False)
      (bn_2): BatchNorm2d(48, eps=1e-05, momentum=0.1, affine=True, track_running_stats=True)
      (conv_2): Conv2d(48, 12, kernel_size=(3, 3), stride=(1, 1), padding=(1, 1), bias=False)
    )
    (15): Bottleneck(
      (bn_1): BatchNorm2d(204, eps=1e-05, momentum=0.1, affine=True, track_running_stats=True)
      (conv_1): Conv2d(204, 48, kernel_size=(1, 1), stride=(1, 1), bias=False)
      (bn_2): BatchNorm2d(48, eps=1e-05, momentum=0.1, affine=True, track_running_stats=True)
      (conv_2): Conv2d(48, 12, kernel_size=(3, 3), stride=(1, 1), padding=(1, 1), bias=False)
    )
  )
  (trans_1): Transition(
    (bn): BatchNorm2d(216, eps=1e-05, momentum=0.1, affine=True, track_running_stats=True)
    (conv): Conv2d(216, 108, kernel_size=(1, 1), stride=(1, 1), bias=False)
  )
  (dense2): Sequential(
    (0): Bottleneck(
      (bn_1): BatchNorm2d(108, eps=1e-05, momentum=0.1, affine=True, track_running_stats=True)
      (conv_1): Conv2d(108, 48, kernel_size=(1, 1), stride=(1, 1), bias=False)
      (bn_2): BatchNorm2d(48, eps=1e-05, momentum=0.1, affine=True, track_running_stats=True)
      (conv_2): Conv2d(48, 12, kernel_size=(3, 3), stride=(1, 1), padding=(1, 1), bias=False)
    )
    (1): Bottleneck(
      (bn_1): BatchNorm2d(120, eps=1e-05, momentum=0.1, affine=True, track_running_stats=True)
      (conv_1): Conv2d(120, 48, kernel_size=(1, 1), stride=(1, 1), bias=False)
      (bn_2): BatchNorm2d(48, eps=1e-05, momentum=0.1, affine=True, track_running_stats=True)
      (conv_2): Conv2d(48, 12, kernel_size=(3, 3), stride=(1, 1), padding=(1, 1), bias=False)
    )
    (2): Bottleneck(
      (bn_1): BatchNorm2d(132, eps=1e-05, momentum=0.1, affine=True, track_running_stats=True)
      (conv_1): Conv2d(132, 48, kernel_size=(1, 1), stride=(1, 1), bias=False)
      (bn_2): BatchNorm2d(48, eps=1e-05, momentum=0.1, affine=True, track_running_stats=True)
      (conv_2): Conv2d(48, 12, kernel_size=(3, 3), stride=(1, 1), padding=(1, 1), bias=False)
    )
    (3): Bottleneck(
      (bn_1): BatchNorm2d(144, eps=1e-05, momentum=0.1, affine=True, track_running_stats=True)
      (conv_1): Conv2d(144, 48, kernel_size=(1, 1), stride=(1, 1), bias=False)
      (bn_2): BatchNorm2d(48, eps=1e-05, momentum=0.1, affine=True, track_running_stats=True)
      (conv_2): Conv2d(48, 12, kernel_size=(3, 3), stride=(1, 1), padding=(1, 1), bias=False)
    )
    (4): Bottleneck(
      (bn_1): BatchNorm2d(156, eps=1e-05, momentum=0.1, affine=True, track_running_stats=True)
      (conv_1): Conv2d(156, 48, kernel_size=(1, 1), stride=(1, 1), bias=False)
      (bn_2): BatchNorm2d(48, eps=1e-05, momentum=0.1, affine=True, track_running_stats=True)
      (conv_2): Conv2d(48, 12, kernel_size=(3, 3), stride=(1, 1), padding=(1, 1), bias=False)
    )
    (5): Bottleneck(
      (bn_1): BatchNorm2d(168, eps=1e-05, momentum=0.1, affine=True, track_running_stats=True)
      (conv_1): Conv2d(168, 48, kernel_size=(1, 1), stride=(1, 1), bias=False)
      (bn_2): BatchNorm2d(48, eps=1e-05, momentum=0.1, affine=True, track_running_stats=True)
      (conv_2): Conv2d(48, 12, kernel_size=(3, 3), stride=(1, 1), padding=(1, 1), bias=False)
    )
    (6): Bottleneck(
      (bn_1): BatchNorm2d(180, eps=1e-05, momentum=0.1, affine=True, track_running_stats=True)
      (conv_1): Conv2d(180, 48, kernel_size=(1, 1), stride=(1, 1), bias=False)
      (bn_2): BatchNorm2d(48, eps=1e-05, momentum=0.1, affine=True, track_running_stats=True)
      (conv_2): Conv2d(48, 12, kernel_size=(3, 3), stride=(1, 1), padding=(1, 1), bias=False)
    )
    (7): Bottleneck(
      (bn_1): BatchNorm2d(192, eps=1e-05, momentum=0.1, affine=True, track_running_stats=True)
      (conv_1): Conv2d(192, 48, kernel_size=(1, 1), stride=(1, 1), bias=False)
      (bn_2): BatchNorm2d(48, eps=1e-05, momentum=0.1, affine=True, track_running_stats=True)
      (conv_2): Conv2d(48, 12, kernel_size=(3, 3), stride=(1, 1), padding=(1, 1), bias=False)
    )
    (8): Bottleneck(
      (bn_1): BatchNorm2d(204, eps=1e-05, momentum=0.1, affine=True, track_running_stats=True)
      (conv_1): Conv2d(204, 48, kernel_size=(1, 1), stride=(1, 1), bias=False)
      (bn_2): BatchNorm2d(48, eps=1e-05, momentum=0.1, affine=True, track_running_stats=True)
      (conv_2): Conv2d(48, 12, kernel_size=(3, 3), stride=(1, 1), padding=(1, 1), bias=False)
    )
    (9): Bottleneck(
      (bn_1): BatchNorm2d(216, eps=1e-05, momentum=0.1, affine=True, track_running_stats=True)
      (conv_1): Conv2d(216, 48, kernel_size=(1, 1), stride=(1, 1), bias=False)
      (bn_2): BatchNorm2d(48, eps=1e-05, momentum=0.1, affine=True, track_running_stats=True)
      (conv_2): Conv2d(48, 12, kernel_size=(3, 3), stride=(1, 1), padding=(1, 1), bias=False)
    )
    (10): Bottleneck(
      (bn_1): BatchNorm2d(228, eps=1e-05, momentum=0.1, affine=True, track_running_stats=True)
      (conv_1): Conv2d(228, 48, kernel_size=(1, 1), stride=(1, 1), bias=False)
      (bn_2): BatchNorm2d(48, eps=1e-05, momentum=0.1, affine=True, track_running_stats=True)
      (conv_2): Conv2d(48, 12, kernel_size=(3, 3), stride=(1, 1), padding=(1, 1), bias=False)
    )
    (11): Bottleneck(
      (bn_1): BatchNorm2d(240, eps=1e-05, momentum=0.1, affine=True, track_running_stats=True)
      (conv_1): Conv2d(240, 48, kernel_size=(1, 1), stride=(1, 1), bias=False)
      (bn_2): BatchNorm2d(48, eps=1e-05, momentum=0.1, affine=True, track_running_stats=True)
      (conv_2): Conv2d(48, 12, kernel_size=(3, 3), stride=(1, 1), padding=(1, 1), bias=False)
    )
    (12): Bottleneck(
      (bn_1): BatchNorm2d(252, eps=1e-05, momentum=0.1, affine=True, track_running_stats=True)
      (conv_1): Conv2d(252, 48, kernel_size=(1, 1), stride=(1, 1), bias=False)
      (bn_2): BatchNorm2d(48, eps=1e-05, momentum=0.1, affine=True, track_running_stats=True)
      (conv_2): Conv2d(48, 12, kernel_size=(3, 3), stride=(1, 1), padding=(1, 1), bias=False)
    )
    (13): Bottleneck(
      (bn_1): BatchNorm2d(264, eps=1e-05, momentum=0.1, affine=True, track_running_stats=True)
      (conv_1): Conv2d(264, 48, kernel_size=(1, 1), stride=(1, 1), bias=False)
      (bn_2): BatchNorm2d(48, eps=1e-05, momentum=0.1, affine=True, track_running_stats=True)
      (conv_2): Conv2d(48, 12, kernel_size=(3, 3), stride=(1, 1), padding=(1, 1), bias=False)
    )
    (14): Bottleneck(
      (bn_1): BatchNorm2d(276, eps=1e-05, momentum=0.1, affine=True, track_running_stats=True)
      (conv_1): Conv2d(276, 48, kernel_size=(1, 1), stride=(1, 1), bias=False)
      (bn_2): BatchNorm2d(48, eps=1e-05, momentum=0.1, affine=True, track_running_stats=True)
      (conv_2): Conv2d(48, 12, kernel_size=(3, 3), stride=(1, 1), padding=(1, 1), bias=False)
    )
    (15): Bottleneck(
      (bn_1): BatchNorm2d(288, eps=1e-05, momentum=0.1, affine=True, track_running_stats=True)
      (conv_1): Conv2d(288, 48, kernel_size=(1, 1), stride=(1, 1), bias=False)
      (bn_2): BatchNorm2d(48, eps=1e-05, momentum=0.1, affine=True, track_running_stats=True)
      (conv_2): Conv2d(48, 12, kernel_size=(3, 3), stride=(1, 1), padding=(1, 1), bias=False)
    )
  )
  (trans_2): Transition(
    (bn): BatchNorm2d(300, eps=1e-05, momentum=0.1, affine=True, track_running_stats=True)
    (conv): Conv2d(300, 150, kernel_size=(1, 1), stride=(1, 1), bias=False)
  )
  (dense_3): Sequential(
    (0): Bottleneck(
      (bn_1): BatchNorm2d(150, eps=1e-05, momentum=0.1, affine=True, track_running_stats=True)
      (conv_1): Conv2d(150, 48, kernel_size=(1, 1), stride=(1, 1), bias=False)
      (bn_2): BatchNorm2d(48, eps=1e-05, momentum=0.1, affine=True, track_running_stats=True)
      (conv_2): Conv2d(48, 12, kernel_size=(3, 3), stride=(1, 1), padding=(1, 1), bias=False)
    )
    (1): Bottleneck(
      (bn_1): BatchNorm2d(162, eps=1e-05, momentum=0.1, affine=True, track_running_stats=True)
      (conv_1): Conv2d(162, 48, kernel_size=(1, 1), stride=(1, 1), bias=False)
      (bn_2): BatchNorm2d(48, eps=1e-05, momentum=0.1, affine=True, track_running_stats=True)
      (conv_2): Conv2d(48, 12, kernel_size=(3, 3), stride=(1, 1), padding=(1, 1), bias=False)
    )
    (2): Bottleneck(
      (bn_1): BatchNorm2d(174, eps=1e-05, momentum=0.1, affine=True, track_running_stats=True)
      (conv_1): Conv2d(174, 48, kernel_size=(1, 1), stride=(1, 1), bias=False)
      (bn_2): BatchNorm2d(48, eps=1e-05, momentum=0.1, affine=True, track_running_stats=True)
      (conv_2): Conv2d(48, 12, kernel_size=(3, 3), stride=(1, 1), padding=(1, 1), bias=False)
    )
    (3): Bottleneck(
      (bn_1): BatchNorm2d(186, eps=1e-05, momentum=0.1, affine=True, track_running_stats=True)
      (conv_1): Conv2d(186, 48, kernel_size=(1, 1), stride=(1, 1), bias=False)
      (bn_2): BatchNorm2d(48, eps=1e-05, momentum=0.1, affine=True, track_running_stats=True)
      (conv_2): Conv2d(48, 12, kernel_size=(3, 3), stride=(1, 1), padding=(1, 1), bias=False)
    )
    (4): Bottleneck(
      (bn_1): BatchNorm2d(198, eps=1e-05, momentum=0.1, affine=True, track_running_stats=True)
      (conv_1): Conv2d(198, 48, kernel_size=(1, 1), stride=(1, 1), bias=False)
      (bn_2): BatchNorm2d(48, eps=1e-05, momentum=0.1, affine=True, track_running_stats=True)
      (conv_2): Conv2d(48, 12, kernel_size=(3, 3), stride=(1, 1), padding=(1, 1), bias=False)
    )
    (5): Bottleneck(
      (bn_1): BatchNorm2d(210, eps=1e-05, momentum=0.1, affine=True, track_running_stats=True)
      (conv_1): Conv2d(210, 48, kernel_size=(1, 1), stride=(1, 1), bias=False)
      (bn_2): BatchNorm2d(48, eps=1e-05, momentum=0.1, affine=True, track_running_stats=True)
      (conv_2): Conv2d(48, 12, kernel_size=(3, 3), stride=(1, 1), padding=(1, 1), bias=False)
    )
    (6): Bottleneck(
      (bn_1): BatchNorm2d(222, eps=1e-05, momentum=0.1, affine=True, track_running_stats=True)
      (conv_1): Conv2d(222, 48, kernel_size=(1, 1), stride=(1, 1), bias=False)
      (bn_2): BatchNorm2d(48, eps=1e-05, momentum=0.1, affine=True, track_running_stats=True)
      (conv_2): Conv2d(48, 12, kernel_size=(3, 3), stride=(1, 1), padding=(1, 1), bias=False)
    )
    (7): Bottleneck(
      (bn_1): BatchNorm2d(234, eps=1e-05, momentum=0.1, affine=True, track_running_stats=True)
      (conv_1): Conv2d(234, 48, kernel_size=(1, 1), stride=(1, 1), bias=False)
      (bn_2): BatchNorm2d(48, eps=1e-05, momentum=0.1, affine=True, track_running_stats=True)
      (conv_2): Conv2d(48, 12, kernel_size=(3, 3), stride=(1, 1), padding=(1, 1), bias=False)
    )
    (8): Bottleneck(
      (bn_1): BatchNorm2d(246, eps=1e-05, momentum=0.1, affine=True, track_running_stats=True)
      (conv_1): Conv2d(246, 48, kernel_size=(1, 1), stride=(1, 1), bias=False)
      (bn_2): BatchNorm2d(48, eps=1e-05, momentum=0.1, affine=True, track_running_stats=True)
      (conv_2): Conv2d(48, 12, kernel_size=(3, 3), stride=(1, 1), padding=(1, 1), bias=False)
    )
    (9): Bottleneck(
      (bn_1): BatchNorm2d(258, eps=1e-05, momentum=0.1, affine=True, track_running_stats=True)
      (conv_1): Conv2d(258, 48, kernel_size=(1, 1), stride=(1, 1), bias=False)
      (bn_2): BatchNorm2d(48, eps=1e-05, momentum=0.1, affine=True, track_running_stats=True)
      (conv_2): Conv2d(48, 12, kernel_size=(3, 3), stride=(1, 1), padding=(1, 1), bias=False)
    )
    (10): Bottleneck(
      (bn_1): BatchNorm2d(270, eps=1e-05, momentum=0.1, affine=True, track_running_stats=True)
      (conv_1): Conv2d(270, 48, kernel_size=(1, 1), stride=(1, 1), bias=False)
      (bn_2): BatchNorm2d(48, eps=1e-05, momentum=0.1, affine=True, track_running_stats=True)
      (conv_2): Conv2d(48, 12, kernel_size=(3, 3), stride=(1, 1), padding=(1, 1), bias=False)
    )
    (11): Bottleneck(
      (bn_1): BatchNorm2d(282, eps=1e-05, momentum=0.1, affine=True, track_running_stats=True)
      (conv_1): Conv2d(282, 48, kernel_size=(1, 1), stride=(1, 1), bias=False)
      (bn_2): BatchNorm2d(48, eps=1e-05, momentum=0.1, affine=True, track_running_stats=True)
      (conv_2): Conv2d(48, 12, kernel_size=(3, 3), stride=(1, 1), padding=(1, 1), bias=False)
    )
    (12): Bottleneck(
      (bn_1): BatchNorm2d(294, eps=1e-05, momentum=0.1, affine=True, track_running_stats=True)
      (conv_1): Conv2d(294, 48, kernel_size=(1, 1), stride=(1, 1), bias=False)
      (bn_2): BatchNorm2d(48, eps=1e-05, momentum=0.1, affine=True, track_running_stats=True)
      (conv_2): Conv2d(48, 12, kernel_size=(3, 3), stride=(1, 1), padding=(1, 1), bias=False)
    )
    (13): Bottleneck(
      (bn_1): BatchNorm2d(306, eps=1e-05, momentum=0.1, affine=True, track_running_stats=True)
      (conv_1): Conv2d(306, 48, kernel_size=(1, 1), stride=(1, 1), bias=False)
      (bn_2): BatchNorm2d(48, eps=1e-05, momentum=0.1, affine=True, track_running_stats=True)
      (conv_2): Conv2d(48, 12, kernel_size=(3, 3), stride=(1, 1), padding=(1, 1), bias=False)
    )
    (14): Bottleneck(
      (bn_1): BatchNorm2d(318, eps=1e-05, momentum=0.1, affine=True, track_running_stats=True)
      (conv_1): Conv2d(318, 48, kernel_size=(1, 1), stride=(1, 1), bias=False)
      (bn_2): BatchNorm2d(48, eps=1e-05, momentum=0.1, affine=True, track_running_stats=True)
      (conv_2): Conv2d(48, 12, kernel_size=(3, 3), stride=(1, 1), padding=(1, 1), bias=False)
    )
    (15): Bottleneck(
      (bn_1): BatchNorm2d(330, eps=1e-05, momentum=0.1, affine=True, track_running_stats=True)
      (conv_1): Conv2d(330, 48, kernel_size=(1, 1), stride=(1, 1), bias=False)
      (bn_2): BatchNorm2d(48, eps=1e-05, momentum=0.1, affine=True, track_running_stats=True)
      (conv_2): Conv2d(48, 12, kernel_size=(3, 3), stride=(1, 1), padding=(1, 1), bias=False)
    )
  )
  (bn): BatchNorm2d(342, eps=1e-05, momentum=0.1, affine=True, track_running_stats=True)
  (fc): Linear(in_features=342, out_features=10, bias=True)
)
[2023-04-21 07:23:23,947] - [train.py line:196] :  == total parameters: 769162
[2023-04-21 07:23:30,249] - [train.py line:234] :             =======  Training  =======

[2023-04-21 07:23:30,251] - [train.py line: 50] :  === Epoch: [1/50] === 
[2023-04-21 07:23:38,418] - [train.py line: 92] :    == step: [100/782], train loss: 1.888 | train acc: 29.125% | lr: 0.100000
…
